public/soynet_soybean_model.onnx (onnx, 28906 bytes, 5 tensors)

conv1.bias f4 [32]
0	0xbd981121	-0.07425142
1	0x3f02326b	0.5085818
2	0x3ea0a1a2	0.31373316
3	0x3f71e283	0.94486254
4	0xbf976f2d	-1.1830803
5	0xbf8642ee	-1.0489175
6	0x3f828172	1.0195754
7	0x3f96fc69	1.179578
8	0xbf9d518c	-1.2290511
9	0x3f8e98ac	1.1140342
10	0xbefc063f	-0.49223515
11	0xbf40f1cf	-0.7536897
12	0x3ed63cf2	0.41843373
13	0x3eab0431	0.33401635
14	0xba9cbda0	-0.0011958368
15	0x3fac6f02	1.3471377
16	0xbdd4d8a0	-0.103928804
17	0xbea12f90	-0.314816
18	0xbe4b18e7	-0.19833718
19	0x3e26843d	0.16261382
20	0x3e594c43	0.21220498
21	0x3de351d4	0.11099592
22	0x3d9211f8	0.071323335
23	0x3fc50f34	1.5395265
24	0x3f19f832	0.6014434
25	0x3e3fa03d	0.1871347
26	0xbe8756a8	-0.264333
27	0xbe286196	-0.16443476
28	0xbfac764c	-1.3473601
29	0xbe804cce	-0.25058597
30	0x3ed48e82	0.41514975
31	0x3e865cee	0.26242775

conv2.bias f4 [32]
0	0xbf35e8ee	-0.7105855
1	0x3ee36c53	0.44418582
2	0xbe6c6e2d	-0.23088904
3	0x3f09dfc0	0.5385704
4	0xbce9963a	-0.028514016
5	0x3f11b046	0.56909597
6	0x3eda7479	0.42666987
7	0x3e38ffb7	0.18066297
8	0xbeca852a	-0.3955472
9	0x3f021755	0.5081685
10	0x3ed688c1	0.4190121
11	0x3f0ab4b2	0.5418197
12	0xbf38ac62	-0.72138035
13	0x3f461c85	0.7738727
14	0xbf20aea9	-0.6276651
15	0x3f396956	0.72426355
16	0x3f0ea879	0.5572582
17	0x3f2d38cc	0.6766479
18	0xbeec6943	-0.46174058
19	0x3ee5dedc	0.4489659
20	0xbfa0f4e2	-1.2574732
21	0x3f846226	1.0342453
22	0x3f0f4854	0.5596974
23	0xbf2fe13d	-0.6870306
24	0x3f33f947	0.7030224
25	0xbe5443ac	-0.2072894
26	0xbb3b6d0c	-0.0028598933
27	0x3c61a750	0.013772801
28	0xbf0dea9d	-0.55436116
29	0x3e4231a7	0.18964253
30	0x3ee950a8	0.45569348
31	0x3ecd3b72	0.40084416

conv3.bias f4 [64]
0	0xbde0d906	-0.10978894
1	0x3f972a3b	1.1809763
2	0x3f92eae1	1.1477929
3	0x3f8f12c5	1.1177603
4	0x3fb148d4	1.385035
5	0x3ed59ec2	0.41722685
6	0x3fb01c02	1.3758547
7	0x3ec82615	0.39091554
8	0x3e989288	0.29799294
9	0x3ebd0282	0.36915976
10	0x3f5dbb1e	0.86613643
11	0x3f8304b6	1.0235813
12	0xbea9eb0d	-0.33187142
13	0x3f6232c4	0.8835871
14	0x3ea8edf2	0.32994038
15	0x3d03d4a2	0.032185204
16	0x3f195d4e	0.59907997
17	0x3f06367c	0.52426887
18	0x3d5b1861	0.053490046
19	0x3f8dc710	1.1076374
20	0x3f865d24	1.0497174
21	0x3f6af4ed	0.9177998
22	0x3f8bb167	1.0913514
23	0xbf06c149	-0.5263868
24	0xbcb2e042	-0.02183545
25	0x3f6d0a69	0.9259401
26	0x3eabc10d	0.33545724
27	0x3f86e6d4	1.0539193
28	0x3f33107a	0.69947016
29	0x3f787eec	0.9706867
30	0x3f51cb5b	0.8195092
31	0x3f0af865	0.5428527
32	0x3d418fca	0.04725627
33	0xbfbe3a29	-1.4861499
34	0xbf0a575b	-0.54039544
35	0x3f057d8e	0.52144706
36	0xbde0763c	-0.109600514
37	0x3d9b25d8	0.075755775
38	0x3f320791	0.69542795
39	0x3f4559e6	0.770903
40	0x3f54fe9e	0.83201015
41	0x3fa8cf7a	1.3188317
42	0x3fab9467	1.3404664
43	0x3f831007	1.0239266
44	0x3f8eacf1	1.1146528
45	0x3f3fdbe9	0.7494493
46	0xbf100cb6	-0.56269395
47	0x3ee531f6	0.4476468
48	0x3e841f67	0.25805208
49	0x3f7260f4	0.9467919
50	0x3f5fcf90	0.8742609
51	0x3f76d7a3	0.96422786
52	0xbfaf62e8	-1.3702059
53	0x3f125152	0.57155335
54	0xbf30dffd	-0.6909178
55	0x3f06bebb	0.5263478
56	0x3e73ed16	0.2382091
57	0x3f94620b	1.159242
58	0xbf2f45a1	-0.6846562
59	0xbea9173b	-0.33025536
60	0x3f39e11b	0.7260911
61	0x3f4d32fd	0.80155927
62	0x3f6df2c5	0.9294856
63	0xbe4d175a	-0.20028439

conv4.bias f4 [64]
0	0x3f8ba9ee	1.0911233
1	0x3f018eb0	0.5060835
2	0x3e240c12	0.1602023
3	0x3eafbd81	0.34324268
4	0xbf2e0181	-0.67971045
5	0xbf4aa354	-0.7915547
6	0x3eb6cb31	0.35701898
7	0x3f9c22bb	1.2198099
8	0x3f117ec8	0.5683408
9	0xbdd0d5a2	-0.10196997
10	0x3f292574	0.66072774
11	0x3f362ac7	0.71159023
12	0x3e01e415	0.12684663
13	0x3fb39f38	1.4032965
14	0x3f386b2d	0.7203854
15	0xbe8115e5	-0.25212017
16	0x3bde8ac4	0.0067914445
17	0xbf6747f1	-0.9034415
18	0x3f38c248	0.7217145
19	0x3eaee563	0.34159383
20	0xbcdc6cd6	-0.026907366
21	0xbf6f41ee	-0.93459976
22	0x3f383998	0.7196288
23	0x3dd75a06	0.105152175
24	0x3f5b2c70	0.8561468
25	0x3eed8470	0.46390104
26	0x3f38073f	0.71886057
27	0xbf1c08fd	-0.60951215
28	0x3f405c96	0.75141275
29	0x3f37e8cf	0.7183961
30	0x3f1a3657	0.60239166
31	0x3f2da070	0.67822933
32	0xbd8efc09	-0.06981666
33	0xbf3a442e	-0.72760284
34	0x3e6beffc	0.23040766
35	0x3f38d3f6	0.72198427
36	0x3f9fb5dd	1.2477375
37	0x3fa86212	1.3154929
38	0x3f28e8a2	0.6597997
39	0xbf858752	-1.0431921
40	0xbdd42262	-0.103581205
41	0xbd031383	-0.03200103
42	0x3f4bc61c	0.79599166
43	0xbf80fbeb	-1.0076879
44	0x3ecc834b	0.3994392
45	0x3f89792a	1.0740101
46	0x3f6b6a18	0.9195876
47	0x3f625d0c	0.8842323
48	0x3ec1ff3c	0.3789004
49	0x3ee1b746	0.4408514
50	0x3ecaee5a	0.39634973
51	0xbf03e41f	-0.5151996
52	0xbef08166	-0.46973723
53	0xbf080d46	-0.53145254
54	0xbf965489	-1.1744548
55	0x3dbff121	0.093721636
56	0x3f5e143a	0.86749613
57	0xbef5f9c4	-0.4804212
58	0x3f237204	0.6384585
59	0x3f3b53e1	0.73174864
60	0x3f0df1a4	0.5544684
61	0x3f776094	0.9663174
62	0xbeded4f4	-0.43521845
63	0x3f4eea4c	0.8082626

fc3.bias f4 [2]
0	0xbb7aebaf	-0.003828745
1	0xbdcbbe4e	-0.09948407
