public/weather_lstm.pth (torch, 815701 bytes, 9 tensors)

lstm.weight_ih_l0 f4 [512, 8]
-0.068762794 -0.06553781 -0.12815832 -0.20301488 -0.014010176 -0.13338089 0.096578956 -0.6840525
0.1160761 -0.19672044 -0.012323509 -0.036089554 -0.06561204 -0.23605017 -0.0074829697 -0.48275617
-0.071156174 -0.021885853 -0.06496004 0.000302139 -0.13931315 -0.2689433 0.01213345 0.24028377
0.10405608 -0.021078356 -0.08450467 -0.011816448 0.033654734 -0.22699052 0.14429924 -0.84724927
-0.013252806 -0.46797398 -0.27953482 -0.16768134 -0.021082284 0.098491445 -0.08155551 -0.7279863
0.1630114 -0.46317896 -0.29892778 -0.023022033 -0.05069356 -0.02472824 0.07127423 0.41169122
0.059778687 -0.06012959 0.050048836 -0.045047224 0.05033376 -0.26125303 0.067472145 -0.60575163
0.20591554 -0.055878904 -0.016502224 0.15171623 -0.2660976 -0.11555457 0.06847637 -1.0060412
-0.1997498 -0.13816158 -0.14897464 -0.1306714 -0.27548867 -0.03880837 -0.22881703 -0.36983818
-0.01209811 -0.092561536 -0.09122494 0.011967369 -0.012888171 0.0384826 0.062303923 -0.46441722
-0.0125596905 -0.18817826 -0.18622085 -0.24979728 -0.042886544 0.07670006 -0.14911127 -0.08759197
-0.12939188 -0.061185423 -0.09914329 -0.08129256 -0.07749853 -0.24129647 0.03705232 -0.8355618
0.04818614 -0.18222801 -0.13218461 -0.06941274 -0.18963675 -0.15311275 0.02989915 -0.02198185
0.020279886 -0.23278478 -0.32217178 -0.032028176 -0.2500757 -0.4456344 0.19689542 -1.7867196
-0.09198274 -0.31714466 -0.32369027 -0.18620607 -0.09999599 0.18084401 -0.046262488 -0.6536232
0.023362368 -0.1622412 -0.088065684 -0.0942019 -0.13174464 -0.22167772 -0.0043574576 -0.6382418
-0.004648853 -0.19553477 -0.036480546 0.17583896 -0.07510856 -0.15372372 -0.14457901 -1.3915838
-0.14220557 0.013204979 0.016173108 -0.070696056 0.13649757 -0.11596809 -0.050844874 -0.85414034
0.1290871 -0.22969678 -0.15997979 -0.029824955 -0.040754553 -0.2366392 0.041203693 -0.30114302
0.20896672 -0.12333402 -0.06211399 0.026423968 -0.15879518 -0.23713517 -0.020426348 -0.81902844
0.1625044 -0.13858609 -0.104886174 0.029900998 0.0089437105 -0.01515183 0.0012858831 -0.72615975
-0.025311178 -0.19989564 -0.10234609 -0.16410847 -0.17135018 -0.16212004 0.020772262 0.079626255
0.4677892 0.3751344 0.41125098 0.81910896 -0.021393329 -0.37169945 0.233355 -1.1922492
0.09047617 -0.45030868 -0.36566055 0.35100865 -0.4261212 -0.6734293 0.032005657 -0.79764664
0.19153677 0.009744654 -0.05444357 0.028307557 -0.034063864 -0.042493016 -0.013532755 -0.33762
0.10377359 -0.14970009 -0.12801448 -0.048802216 -0.19690537 -0.027317766 -0.09248265 -0.16000174
0.09737494 -0.07363295 -0.03952098 -0.15357476 -0.1208291 -0.11749525 0.05529293 -0.6093053
0.15493384 -0.43509784 -0.2487924 0.22933051 -0.39286923 -0.6652846 0.14753559 -1.4677094
0.06440786 0.020231225 0.04778189 -0.0072472845 -0.031300504 -0.068638876 0.24613662 -0.19215022
0.07045652 -0.1890719 0.015018938 0.04397039 -0.03421989 -0.34171414 -0.01164117 -0.47596857
0.23319547 -0.26653692 -0.14916751 0.10865643 -0.120335676 -0.08200217 0.028940508 -1.0272406
0.026482029 0.20601031 0.16024277 -0.011483669 0.040617965 -0.0999327 0.17408933 -0.29712486
00000000: 82d3 8cbd b038 86bd ef3b 03be 22e3 4fbe
00000010: f08a 65bc 0095 08be 30cb c53d 111e 2fbf
00000020: 4eb9 ed3d 1571 49be 8be8 49bc a4d2 13bd
00000030: 9b5f 86bd 23b7 71be b333 f5bb d12b f7be
00000040: 54ba 91bd f649 b3bc c509 85bd 6968 9e39
00000050: 1ba8 0ebe f0b2 89be 61cb 463c f30c 763e
00000060: 5b1b d53d 84ac acbc c910 adbd c699 41bc
00000070: 8cd9 093d 3470 68be 2ec3 133e 54e5 58bf
00000080: 4c22 59bc 499a efbe 301f 8fbe a8b4 2bbe
00000090: c1b4 acbc e2b5 c93d 9306 a7bd 4f5d 3abf
000000a0: 76ec 263e cb25 edbe 100d 99be b498 bcbc
000000b0: 0da4 4fbd e192 cabc 39f8 913d 31c9 d23e
000000c0: 7fda 743d 724a 76bd 0200 4d3d 7083 38bd
000000d0: c62a 4e3d f5c2 85be d62e 8a3d 8a12 1bbf
000000e0: 86db 523e 47e1 64bd ac2f 87bc 805b 1b3e
000000f0: f23d 88be e0a7 ecbd 573d 8c3d f5c5 80bf
00000100: 368b 4cbe 3b7a 0dbe cf8c 18be b9ce 05be
00000110: da0c 8dbe 86f5 1ebd 034f 6abe 6e5b bdbe
00000120: 2737 46bc e790 bdbd 24d4 babd c912 443c
00000130: e828 53bc ee9f 1d3d 6632 7f3d 18c8 edbe
00000140: 29c7 4dbc cdb1 40be aeb0 3ebe dcca 7fbe
00000150: cda9 2fbd ec14 9d3d a0b0 18be 6b63 b3bd
00000160: 4e7f 04be 919d 7abd a30b cbbd b77c a6bd
00000170: 8db7 9ebd 6c16 77be 2cc4 173d 61e7 55bf
00000180: d45e 453d fb99 3abe 675b 07be 4428 8ebd
00000190: 2330 42be 97c9 1cbe 10ef f43c 4813 b4bc
000001a0: 0122 a63c 225f 6ebe b3f3 a4be fa2f 03bd
000001b0: ec09 80be 312a e4be f49e 493e 3ab3 e4bf
000001c0: 7261 bcbd c960 a2be bbba a5be ceac 3ebe
000001d0: b3ca ccbd 2c2f 393e bc7d 3dbd da53 27bf
000001e0: 7062 bf3c 8f22 26be c85b b4bd edec c0bd
000001f0: 11e8 06be 7cff 62be 01c9 8ebb d163 23bf
00000200: 6855 98bb 443a 48be a06c 15bd 210f 343e
00000210: 84d2 99bd c069 1dbe 850c 14be 6b1f b2bf
00000220: 569e 11be b259 583c 777d 843c 18c9 90bd
00000230: 05c6 0b3e ae80 edbd b742 50bd f1a8 5abf
00000240: 692f 043e a235 6bbe bed1 23be 7753 f4bc
00000250: 3fee 26bd 8c51 72be 34c5 283d 6b2f 9abe
00000260: 5ffb 553e 8c96 fcbd 3d6b 7ebd 1477 d83c
00000270: 349b 22be 90d3 72be 2855 a7bc d9ab 51bf
00000280: 8e67 263e 83e9 0dbe 90ce d6bd f0f2 f43c
00000290: a488 123c 623f 78bc 148b a83a 9be5 39bf
000002a0: 6359 cfbc 71b1 4cbe d49a d1bd 0d0c 28be
000002b0: 6c76 2fbe cc02 26be 972a aa3c 1713 a33d
000002c0: 1182 ef3e 9e11 c03e 7d8f d23e 20b1 513f
000002d0: 1041 afbc 644f bebe 9df4 6e3e 9f9b 98bf
000002e0: 924b b93d dc8e e6be dc37 bbbe 68b7 b33e
000002f0: 8f2c dabe dd65 2cbf 5d18 033d 9232 4cbf
00000300: 3722 443e 0ba8 1f3c 3900 5fbd 40e5 e73c
00000310: 8d86 0bbd 280d 2ebd 7db8 5dbc 87dc acbe
00000320: 3f87 d43d fb4a 19be 3a16 03be d5e4 47bd
00000330: 90a1 49be 82c9 dfbc 8b67 bdbd 7fd7 23be
00000340: 836c c73d dfcc 96bd c0e0 21bd b442 1dbe
00000350: 3f75 f7bd 5aa1 f0bd d77a 623d 6ffb 1bbf
00000360: faa6 1e3e 25c5 debe 6fc3 7ebe 9ed5 6a3e
00000370: 2826 c9be 1750 2abf 9213 173e e7dd bbbf
00000380: 45e8 833d f4bb a53c f1b6 433d a17a edbb
00000390: f534 00bd 8a92 8cbd 3d0b 7c3e 07c3 44be
000003a0: 824b 903d 109c 41be fe11 763c 4c1a 343d
000003b0: 282a 0cbd 28f5 aebe 9bba 3ebc 27b2 f3be
000003c0: cbca 6e3e 8777 88be 5ebf 18be 4387 de3d
000003d0: 8d72 f6bd c1f0 a7bd a514 ed3c 9f7c 83bf
000003e0: d7f0 d83c 5ef4 523e ae16 243e 0026 3cbc
000003f0: 065f 263d 84a9 ccbd 7944 323e c020 98be

lstm.weight_hh_l0 f4 [512, 128]
0.06936107 -0.050860316 -0.085761644 0.15466574 0.1786534 0.02123762 -0.061828 0.14908454
-0.05292817 -0.0020509306 -0.15388061 -0.044617996 -0.066002436 0.034496475 -0.07251012 0.041317966
-0.0077342675 0.035961144 -0.047374852 -0.017913736 -0.0014819688 0.02649209 0.2954749 -0.08655597
0.010450809 0.13696845 -0.12750992 -0.15885364 -0.07616181 -0.042469274 -0.09304293 -0.15768857
0.067542925 -0.17698567 0.114334784 -0.100922376 -0.19498135 0.03423735 0.10312682 0.11267759
0.04856891 0.14725335 -0.043038238 -0.09468228 0.09674275 -0.102755144 0.11767906 -0.11591155
-0.15666834 0.1065226 -0.031385608 -0.13957752 0.13725203 0.005798555 0.18619867 0.08752958
0.0071537714 0.077345505 -0.17680927 0.25301498 -0.049132477 -0.1318899 -0.013641064 0.14453468
-0.005105966 0.055114858 0.04356765 0.12480511 -0.10975229 0.09228075 -0.19334678 0.16953735
-0.15857233 0.1710625 0.084705286 -0.112681 0.06293419 0.1321146 -0.22285505 -0.12205655
-0.047366664 0.09649761 -0.07683004 -0.02024294 -0.07164946 0.06440364 0.10877296 -0.1224105
0.05273444 -0.14877255 0.0906107 -0.075109094 -0.08081104 0.09386209 0.044813026 -0.1719614
-0.023163917 0.1377561 -0.08150363 0.10264829 0.09898258 0.14145206 -0.122703046 0.0005494675
-0.2965013 0.01531794 0.026648339 -0.073113985 0.06639505 -0.2536338 -0.1725895 0.090857014
-0.012600485 0.14101726 -0.014402384 0.045352742 0.16348422 -0.07437043 0.1137252 0.07518521
0.14309062 -0.07226804 0.16178015 -0.18202397 0.12201474 0.051411897 0.17928387 0.19099447
0.11384251 -0.099688694 0.048952736 0.016278664 0.10034163 -0.056767605 -0.1190348 0.05627906
-0.0013913857 -0.016319973 -0.05824329 -0.060608063 -0.04564082 0.050265767 -0.02368225 -0.042592864
-0.03544364 0.18414454 -0.015281495 0.1271198 -0.00055772444 0.13284448 -0.0661679 -0.06316029
0.053799838 -0.05315032 -0.11988466 0.007925591 0.040920153 -0.03430463 0.023460625 -0.043318175
0.0016920161 -0.27769396 0.23380038 -0.30118144 -0.10271684 0.04547526 -0.009513285 -0.05984612
0.12017846 0.11349907 0.12888263 -0.11253447 -0.004309822 -0.07992376 0.010218338 0.051624283
0.011575885 0.1280635 -0.049645696 0.00935921 0.109362714 0.042100646 0.03537353 0.02779852
0.09630181 -0.03996794 -0.14393346 0.075833894 0.05455578 -0.19464698 -0.07106109 0.05536203
-0.035314314 0.10757736 0.090598695 -0.11732795 -0.14395078 0.08225201 -0.1023902 0.12256573
-0.07739238 -0.17268293 0.15370165 -0.18398611 0.13771246 0.03254884 -0.08089728 -0.050387383
-0.14049555 0.09082549 -0.015202051 -0.006046174 -0.13693531 -0.043565463 0.24492778 -0.22147717
0.09103095 0.017681148 -0.01770392 -0.05557514 -0.1298224 0.13082176 -0.060777806 -0.02341477
0.039801523 -0.08997896 -0.006092486 0.086373486 0.06266318 -0.15620437 -0.043899868 -0.08248889
0.15771392 0.020465976 0.08313966 -0.08953396 -0.025427077 -0.019460263 -0.04208602 -0.051137697
0.12063738 0.0686354 -0.19192843 0.044587925 0.11180764 0.13273516 -0.2035363 -0.09155158
0.035033386 0.06443283 0.060677204 -0.0798065 0.02481921 -0.21253331 -0.05078791 0.074803405
00000000: 2d0d 8e3d e852 50bd cda3 afbd b260 1e3e
00000010: ebf0 363e 84fa ad3c 5b3f 7dbd 9ea9 183e
00000020: 35cb 58bd e868 06bb e192 1dbe 5cc1 36bd
00000030: 492c 87bd 2d4c 0d3d 3080 94bd 073d 293d
00000040: bd6f fdbb fe4b 133d 220c 42bd d4bf 92bc
00000050: 9f3e c2ba f105 d93c 7c48 973e 4244 b1bd
00000060: df39 2b3c 7541 0c3e f691 02be 87aa 22be
00000070: b9fa 9bbd 43f4 2dbd 4b8d bebd 1d79 21be
00000080: f253 8a3d bb3b 35be 5b28 ea3d 64b0 cebd
00000090: 31a9 47be 773c 0c3d 2734 d33d 82c3 e63d
000000a0: 32f0 463d 95c9 163e dd48 30bd c9e8 c1bd
000000b0: 1021 c63d 4a71 d2bd b801 f13d 0963 edbd
000000c0: aa6d 20be 8528 da3d 328e 00bd 69ed 0ebe
000000d0: cc8b 0c3e ce01 be3b ddaa 3e3e b542 b33d
000000e0: 2f6a ea3b 5267 9e3d 7d0d 35be 2e8b 813e
000000f0: 233f 49bd 250e 07be c57e 5fbc e600 143e
00000100: f24f a7bb 1ec0 613d fe73 323d d299 ff3d
00000110: cfc5 e0bd b1fd bc3d b3fc 45be 339b 2d3e
00000120: c960 22be 022b 2f3e f779 ad3d 4cc5 e6bd
00000130: a4e3 803d 0d49 073e 1d34 64be c9f8 f9bd
00000140: 8c03 42bd 8aa0 c53d 1159 9dbd 86d4 a5bc
00000150: f4bc 92bd 0ee6 833d 5cc4 de3d 5bb2 fabd
00000160: 1100 583d d557 18be 1a92 b93d ccd2 99bd
00000170: 4280 a5bd c43a c03d dd8d 373d a616 30be
00000180: 41c2 bdbc ef0f 0d3e 60eb a6bd 4439 d23d
00000190: 61b7 ca3d cfd8 103e bc4b fbbd 240a 103a
000001a0: 05cf 97be 19f8 7a3c 9e4d da3c c9bc 95bd
000001b0: 21fa 873d 4adc 81be 4dbb 30be 3e13 ba3d
000001c0: 4472 4ebc d466 103e faf7 6bbc ccc3 393d
000001d0: 6868 273e 864f 98bd c2e8 e83d b4fa 993d
000001e0: 5986 123e 4401 94bd b2a9 253e 7e64 3abe
000001f0: dde2 f93d 4895 523d 3196 373e 0e94 433e
00000200: 4326 e93d 9629 ccbd aa82 483d d55a 853c
00000210: ea7f cd3d 2685 68bd 84c8 f3bd df84 663d
00000220: 285f b6ba 77b1 85bc 8490 6ebd 2940 78bd
00000230: def1 3abd 7ae3 4d3d 4701 c2bc db75 2ebd
00000240: 5a2d 11bd 6390 3c3e 3c5f 7abc b12b 023e
00000250: 4134 12ba 6208 083e 0983 87bd 2f5a 81bd
00000260: 385d 5c3d 26b4 59bd 1786 f5bd 57da 013c
00000270: e49b 273d 0383 0cbd 7f30 c03c 666e 31bd
00000280: a4c6 dd3a e72d 8ebe 5e69 6f3e 7434 9abe
00000290: 355d d2bd 4444 3a3d 9cdd 1bbc 3521 75bd
000002a0: 2020 f63d 3372 e83d cff9 033e 7978 e6bd
000002b0: 6839 8dbb 11af a3bd d16a 273c fc73 533d
000002c0: c8a8 3d3c 1423 033e 4959 4bbd 5f57 193c
000002d0: 8ff9 df3d ba71 2c3d d6e3 103d b9b9 e33c
000002e0: e239 c53d 6cb5 23bd 4b63 13be cd4e 9b3d
000002f0: e275 5f3d 8a51 47be 7a88 91bd 4cc3 623d
00000300: bea5 10bd 8551 dc3d cf8b b93d a349 f0bd
00000310: d567 13be be73 a83d f4b1 d1bd be03 fb3d
00000320: e57f 9ebd cbd3 30be f763 1d3e db66 3cbe
00000330: 7f04 0d3e ef51 053d 79ad a5bd 0063 4ebd
00000340: 11de 0fbe b702 ba3d 0612 79bc fc1e c6bb
00000350: c538 0cbe b371 32bd 59ce 7a3e e9ca 62be
00000360: 6f6e ba3d 0ed8 903c d007 91bc c2a2 63bd
00000370: 2af0 04be 24f6 053e 26f2 78bd 55d0 bfbc
00000380: ec06 233d e446 b8bd 7aa3 c7bb 95e4 b03d
00000390: 8e55 803d 0af4 1fbe 59d0 33bd efef a8bd
000003a0: c27f 213e 43a8 a73c 2045 aa3d 955d b7bd
000003b0: 724c d0bc 216b 9fbc 6462 2cbd c375 51bd
000003c0: bb10 f73d b790 8c3d e388 44be d4a1 363d
000003d0: 67fb e43d baeb 073e d26b 50be 657f bbbd
000003e0: 2b7f 0f3d 5cf5 833d a988 783d 9771 a3bd
000003f0: a851 cb3c 55a2 59be fc06 50bd 8732 993d

lstm.bias_ih_l0 f4 [512]
-0.020258537 -0.017606093 -0.024998633 -0.07365872 -0.06281962 0.021463165 0.13250723 0.15788114
-0.0758614 -0.031258553 -0.23225632 -0.13441098 0.043740205 -0.029409299 -0.16781393 -0.07986063
-0.011544559 0.002472429 -0.07783027 0.041395944 -0.0031877197 -0.04494612 0.52013075 0.078003965
0.022473378 -0.043754365 0.015408377 0.18192402 0.111014046 -0.06569934 0.18945825 -0.06738046
-0.05237398 -0.0016236589 0.009656355 -0.018092865 -0.11249498 0.13127755 0.00041122656 0.06913667
-0.04125014 -0.13680099 0.20812987 -0.06923761 -0.0508875 -0.15259501 -0.06250685 -0.20557694
-0.01622646 0.016209798 -0.109254695 -0.0023123373 -0.045571912 -0.026728919 -0.09641871 0.10397259
0.122452796 -0.03303308 0.221035 0.2539372 -0.016400626 -0.09820256 -0.084470354 -0.14880037
-0.16999774 -0.034044784 0.053276606 0.011677755 -0.14085762 0.013748071 0.19749638 -0.053180087
-0.082270965 -0.038847372 -0.12261083 -0.0905984 -0.1607142 0.0685756 0.26956075 0.07429845
0.08746932 -0.19150355 0.11928262 -0.095674075 -0.06956303 -0.0528546 0.043611877 0.097931474
-0.10701997 0.2996782 -0.09355286 -0.10649447 -0.13594383 -0.02723366 -0.1323556 -0.15057683
0.05715294 0.22810912 0.076288745 -0.12989824 -0.063970834 0.37296912 0.064852566 -0.20202167
0.038717013 -0.027352545 -0.055181276 0.023739494 -0.12936655 -0.13120027 -0.14543997 -0.0028799865
0.16808969 -0.06346715 0.033704657 0.050065868 -0.13467023 0.22556423 0.027917381 -0.037532024
-0.0283783 0.05988677 0.55160487 -0.17729431 -0.054481898 -0.04958668 0.5225298 0.20373593
-0.19625507 -0.25913438 -0.2327474 -0.21389289 -0.22207816 -0.11787621 -0.24084648 -0.36879137
-0.053352498 -0.22326595 -0.13229541 -0.19122145 -0.12731196 -0.34039813 -0.10276931 -0.11938367
-0.2112785 -0.08476946 -0.20570162 -0.18733251 -0.3208843 -0.25505763 -0.40763307 -0.29028764
-0.30165684 -0.15982822 -0.11528725 -0.55116063 -0.20838417 -0.2638574 -0.17342809 -0.27492273
-0.071208194 -0.24877137 -0.14188004 0.06948734 -0.28617108 -0.4324088 -0.32964706 -0.2501787
-0.33273336 -0.29035836 -0.41087723 -0.17508839 -0.26835582 -0.24435835 -0.20720983 -0.16800767
-0.41421747 -0.23601986 -0.17196475 -0.1903792 -0.20332472 -0.18017493 -0.067657374 -0.37756515
-0.0996026 -0.33823702 -0.3714585 -0.21379246 -0.049576998 -0.16308855 -0.21947157 -0.08342044
-0.13319397 -0.14089753 0.03222648 -0.047937464 -0.15255441 -0.3089479 -0.20810248 -0.2807971
-0.3208339 -0.14318834 -0.29674733 -0.25965226 -0.25758162 -0.24811327 -0.4304297 -0.19251227
-0.1779626 -0.0032353187 -0.19922736 -0.17993347 -0.24123777 -0.16633378 -0.0670148 -0.10705831
-0.19016738 -0.4027602 -0.08354925 -0.019034116 -0.14207393 -0.17913097 -0.26988003 -0.20723556
0.32997528 -0.16364631 -0.31045514 -0.2079867 -0.09381625 -0.41137353 -0.37143734 -0.21999842
0.17915589 -0.29278216 -0.17198297 -0.34191924 -0.047369532 -0.0545976 -0.21761003 -0.25499082
-0.25206268 -0.16550542 -0.19736896 -0.13109513 -0.13006724 -0.31785572 -0.29789758 -0.124485
-0.24773292 -0.44381288 -0.45699376 -0.07873761 -0.28592074 -0.25121245 -0.37393284 -0.38757974
00000000: 3bf5 a5bc a73a 90bc efc9 ccbc 62da 96bd
00000010: 93a7 80bd 85d3 af3c faaf 073e 98ab 213e
00000020: 395d 9bbd f808 00bd 9ad4 6dbe 08a3 09be
00000030: ee28 333d c5eb f0bc 6ad7 2bbe f88d a3bd
00000040: 6425 3dbc 7a08 223b 7a65 9fbd cb8e 293d
00000050: 10e9 50bb 6c19 38bd 4a27 053f 8bc0 9f3d
00000060: 171a b83c c737 33bd 6b73 7c3c 4a4a 3a3e
00000070: 555b e33d 608d 86bd 5801 423e c4fe 89bd
00000080: 1986 56bd f4d0 d4ba b035 1e3c 7d37 94bc
00000090: c563 e6bd 9f6d 063e e599 d739 8797 8d3d
000000a0: e8f5 28bd 8f15 0cbe ff1f 553e 73cc 8dbd
000000b0: 696f 50bd de41 1cbe 9703 80bd c382 52be
000000c0: 5aed 84bc 69ca 843c edc0 dfbd 958a 17bb
000000d0: 9da9 3abd 9bf6 dabc 2c77 c5bd 95ef d43d
000000e0: 88c8 fa3d b24d 07bd 0057 623e 0f04 823e
000000f0: 9b5a 86bc 6c1e c9bd cbfe acbd 205f 18be
00000100: e313 2ebe 8b72 0bbd 9238 5a3d 0e54 3f3c
00000110: fb3c 10be 973f 613c 7e3c 4a3e 5dd3 59bd
00000120: ae7d a8bd 6c1e 1fbd 631b fbbd a78b b9bd
00000130: 4392 24be 5d71 8c3d de03 8a3e c929 983d
00000140: 1d23 b33d 8219 44be 724a f43d c5f0 c3bd
00000150: 1077 8ebd 117e 58bd 5ea2 323d 4c90 c83d
00000160: 492d dbbd 6c6f 993e a498 bfbd c619 dabd
00000170: dc34 0bbe 2019 dfbc 3a88 07be d030 1abe
00000180: 3419 6a3d 7095 693e 463d 9c3d 0b04 05be
00000190: 2403 83bd cff5 be3e 6cd1 843d c5de 4ebe
000001a0: bb95 1e3d 7212 e0bc c305 62bd 5479 c23c
000001b0: aa78 04be 5d59 06be 37ee 14be 28be 3cbb
000001c0: b41f 2c3e 11fb 81bd e50d 0a3d de11 4d3d
000001d0: fee6 09be 4ffa 663e feb2 e43c 2ebb 19bd
000001e0: 9c79 e8bc d44b 753d fa35 0d3f a48c 35be
000001f0: 6928 5fbd 671b 4bbd 83c4 053f 27a0 503e
00000200: 17f7 48be 43ad 84be 5655 6ebe bd06 5bbe
00000210: 7568 63be 1569 f1bd 76a0 76be 39d2 bcbe
00000220: 2688 5abd d49f 64be 7378 07be 8ecf 43be
00000230: 115e 02be aa48 aebe b778 d2bd 6d7f f4bd
00000240: 6459 58be 9c9b adbd 72a3 52be 18d4 3fbe
00000250: f24a a4be ea96 82be 48b5 d0be 95a0 94be
00000260: c472 9abe 02aa 23be b91b ecbd dd18 0dbf
00000270: a962 55be 5118 87be 2297 31be acc2 8cbe
00000280: 9ad5 91bd ecbd 7ebe 0049 11be 614f 8e3d
00000290: 0485 92be b064 ddbe 80c7 a8be 6c17 80be
000002a0: 075c aabe daa9 94be 805e d2be 5f4a 33be
000002b0: ef65 89be 1339 7abe d02e 54be 340a 2cbe
000002c0: 5014 d4be 31af 71be 8717 30be c4f2 42be
000002d0: 5b34 50be c77f 38be f38f 8abd 3850 c1be
000002e0: 73fc cbbd 672d adbe cf2f bebe 69ec 5abe
000002f0: 4011 4bbd af00 27be 28bd 60be 56d8 aabd
00000300: 0064 08be 7147 10be eaff 033d 135a 44bd
00000310: 3937 1cbe 6b2e 9ebe d118 55be a3c4 8fbe
00000320: 5744 a4be f79f 12be 44ef 97be 24f1 84be
00000330: bde1 83be 6811 7ebe 4861 dcbe f021 45be
00000340: d43b 36be a407 54bb 4202 4cbe 7b40 38be
00000350: 0907 77be 6753 2abe 0e3f 89bd 6341 dbbd
00000360: 3dbb 42be 9636 cebe df1b abbd 6fed 9bbc
00000370: d47b 11be 1c6e 37be b72d 8abe 8f35 54be
00000380: 85f2 a83e e692 27be faf3 9ebe 77fa 54be
00000390: bc22 c0bd 8d9f d2be 092d bebe 4447 61be
000003a0: a474 373e 8be7 95be 4e1c 30be 0a10 afbe
000003b0: 8e06 42bd bca1 5fbd 2ad5 5ebe 288e 82be
000003c0: 5c0e 81be 417a 29be 171b 4abe cd3d 06be
000003d0: 5930 05be fcbd a2be 0886 98be fef1 febd
000003e0: b3ad 7dbe 713b e3be 16fb e9be 2f41 a1bd
000003f0: 3464 92be eb9e 80be 2074 bfbe da70 c6be

lstm.bias_hh_l0 f4 [512]
-0.12254766 -0.042441167 -0.04718617 -0.08839871 -0.18350004 0.03195302 -0.006589832 0.18058181
-0.12798584 -0.111920066 -0.11443848 -0.08126229 -0.047214754 0.020865742 -0.10138986 -0.22982647
-0.087121084 -0.14086792 -0.13479492 0.01270763 -0.04689296 -0.14270492 0.5344379 0.105219096
-0.012997504 0.0067055435 -0.026024032 0.115975514 0.10692985 -0.0429499 0.035091884 0.0066502504
-0.19474898 0.06896651 0.08921138 0.097727776 -0.07916894 0.28289726 -0.016100962 0.04488404
-0.11494321 -0.18034038 0.26154616 -0.05871348 -0.060727276 -0.09647087 -0.019374236 -0.16032432
-0.0052253283 -0.028708695 -0.06694838 0.03752333 -0.14195281 0.01275326 -0.043229684 0.17898631
0.0051586716 -0.09961431 0.24744269 0.30705166 -0.028025404 0.024872456 0.030182187 -0.10443546
-0.19442274 0.022017024 0.07950704 0.12405616 -0.1314361 0.059017863 0.17086127 -0.06552032
-0.10958354 -0.000672097 -0.088281 -0.07242441 0.013043712 0.09479392 0.20306 0.07174725
0.014686424 -0.08063964 0.014282142 -0.035540555 -0.07188141 -0.085735425 -0.022926321 0.08474715
-0.09262445 0.22309661 -0.037963048 -0.015253539 -0.05109924 0.024521178 -0.060172066 -0.12664466
0.03695507 0.15975395 0.13159955 -0.04178063 -0.1191907 0.34267488 0.06371292 -0.17980058
0.006614117 -0.11773002 -0.062132027 0.05557764 -0.16329542 -0.11993488 -0.12719168 0.0676995
0.093688704 -0.10805407 -0.039781317 -0.0016506191 -0.065697536 0.25782925 0.107397355 0.10341404
0.04996719 -0.014615772 0.45688894 -0.05477143 -0.16127147 0.00826661 0.4895897 0.28321043
-0.21552233 -0.28746456 -0.22262925 -0.29644242 -0.23810984 -0.08904182 -0.12942997 -0.46281028
-0.1087076 -0.16962968 -0.12893301 -0.2217239 -0.2766114 -0.36938825 -0.10362963 -0.12949078
-0.09185594 -0.037578885 -0.3044166 -0.23522134 -0.30848446 -0.26283988 -0.3822265 -0.13055308
-0.24840766 -0.21603833 -0.18122469 -0.3890748 -0.071717225 -0.14472549 -0.3365481 -0.17660345
-0.1520804 -0.31744847 -0.045607105 0.13227297 -0.27248055 -0.27138692 -0.24027063 -0.26830328
-0.28033638 -0.18814662 -0.3629203 -0.25182524 -0.296988 -0.18467207 -0.049079474 -0.18839185
-0.30377793 -0.30473298 -0.18458028 -0.17330183 -0.17762297 -0.26470613 -0.10390822 -0.36991048
-0.09616507 -0.24649738 -0.23874791 -0.25317436 -0.107405424 -0.19916442 -0.25391558 -0.07058174
-0.146252 -0.015782665 -0.005851578 -0.21398547 -0.16969474 -0.35061246 -0.2511636 -0.2656696
-0.23714095 -0.077150516 -0.2571526 -0.2509249 -0.28703347 -0.23606007 -0.3847765 -0.081931375
-0.18500544 -0.11735873 -0.1779113 -0.26432937 -0.1872659 -0.17104799 0.04045893 -0.06495669
-0.31299686 -0.4051577 -0.13890326 -0.088899784 -0.061455537 -0.22799124 -0.3014921 -0.15922326
0.25676394 -0.22841114 -0.20324063 -0.13049178 -0.13969587 -0.25742313 -0.32943237 -0.22272055
0.08800791 -0.31673944 -0.19470924 -0.2888472 -0.08802204 0.11139419 -0.15889503 -0.28694543
-0.20540307 -0.13431352 -0.051620875 -0.14560227 -0.22855675 -0.32450086 -0.35384288 -0.13088821
-0.16717792 -0.3034394 -0.5248702 -0.17531183 -0.24210511 -0.25977564 -0.42051974 -0.39944816
00000000: 44fa fabd cad6 2dbd 4946 41bd 620a b5bd
00000010: 6fe7 3bbe 2be1 023d 84ef d7bb 70ea 383e
00000020: b80e 03be 5936 e5bd b95e eabd d86c a6bd
00000030: 4264 41bd a2ee aa3c 7da5 cfbd a157 6bbe
00000040: 8a6c b2bd ae3f 10be ae07 0abe aa33 503c
00000050: d512 40bd 3d21 12be ecd0 083f 1c7d d73d
00000060: 7cf3 54bc 2dba db3b 5a30 d5bc 9284 ed3d
00000070: 0afe da3d 3cec 2fbd 82bc 0f3d 58ea d93b
00000080: 476c 47be 503e 8d3d 75b4 b63d 8025 c83d
00000090: 5323 a2bd e9d7 903e 2ae6 83bc 54d8 373d
000000a0: 5867 ebbd 26ab 38be 61e9 853e 8c7d 70bd
000000b0: 2abd 78bd 8592 c5bd b8b6 9ebc 0f2c 24be
000000c0: 3b39 abbb 7f2e ebbc 3b1c 89bd 10b2 193d
000000d0: 145c 11be 0df3 503c 9c11 31bd 3048 373e
000000e0: 130a a93b 9602 ccbd 9e61 7d3e e035 9d3e
000000f0: 8895 e5bc 52c1 cb3c a240 f73c 42e2 d5bd
00000100: c116 47be 0c5d b43c 96d4 a23d 2811 fe3d
00000110: 2f97 06be b7bc 713d 42f6 2e3e 842f 86bd
00000120: 566d e0bd ab2f 30ba abcc b4bd 4053 94bd
00000130: 4bb5 553c 5123 c23d f6ee 4f3e 39f0 923d
00000140: 549f 703c 6526 a5bd a5ff 693c f992 11bd
00000150: 9036 93bd 0e96 afbd fbcf bbbc ea8f ad3d
00000160: e3b1 bdbd 7073 643e 247f 1bbd fbe9 79bc
00000170: 704d 51bd a3e0 c83c fc76 76bd 23af 01be
00000180: 335e 173d 8a96 233e 08c2 063e 2a22 2bbd
00000190: 411a f4bd 1573 af3e eb7b 823d a51d 38be
000001a0: 3cbb d83b 701c f1bd 277e 7ebd 61a5 633d
000001b0: ea36 27be 6ba0 f5bd 893e 02be 09a6 8a3d
000001c0: dddf bf3d 744b ddbd bcf1 22bd 9659 d8ba
000001d0: 6e8c 86bd 3202 843e 25f3 db3d bdca d33d
000001e0: 65aa 4c3d fe76 6fbc 59ed e93e 0258 60bd
000001f0: 5924 25be ad70 073c 80ab fa3e f500 913e
00000200: e3b1 5cbe 8e2e 93be ecf8 63be 4dc7 97be
00000210: 11d3 73be 8f5b b6bd 4a89 04be 78f5 ecbe
00000220: 17a2 debd 67b3 2dbe 0407 04be 970b 63be
00000230: 02a0 8dbe 7520 bdbe c53b d4bd 3b99 04be
00000240: f81e bcbd 51ec 19bd 7edc 9bbe dddd 70be
00000250: adf1 9dbe f392 86be 31b3 c3be b5af 05be
00000260: 945e 7ebe 2739 5dbe f792 39be d034 c7be
00000270: 7be0 92bd eb32 14be 0850 acbe 89d7 34be
00000280: f7ba 1bbe 9b88 a2be 84ce 3abd 9172 073e
00000290: 9282 8bbe 3af3 8abe 8109 76be 0c5f 89be
000002a0: 4088 8fbe 82a9 40be b1d0 b9be 3def 80be
000002b0: d00e 98be ad1a 3dbe 8f07 49bd cbe9 40be
000002c0: c888 9bbe f605 9cbe 9d02 3dbe 0976 31be
000002d0: cce2 35be 9087 87be d5cd d4bd e864 bdbe
000002e0: 31f2 c4bd cf69 7cbe 557a 74be 12a0 81be
000002f0: 60f7 dbbd c2f1 4bbe 3901 82be 298d 90bd
00000300: 16c3 15be a64a 81bc 98be bfbb 021f 5bbe
00000310: 75c4 2dbe 7a83 b3be 8498 80be d905 88be
00000320: 14d5 72be 1701 9ebd 81a9 83be 3a79 80be
00000330: 0df6 92be bbb9 71be 6d01 c5be a3cb a7bd
00000340: 1172 3dbe c659 f0bd 612e 36be 2e56 87be
00000350: a2c2 3fbe 3427 2fbe 43b8 253d 0308 85bd
00000360: 2041 a0be d470 cfbe a83c 0ebe 1711 b6bd
00000370: cdb8 7bbd 8976 69be 2c5d 9abe 6c0b 23be
00000380: 9076 833e 9ce4 69be 501e 50be a39f 05be
00000390: 6f0c 0fbe f7cc 83be 5cab a8be db10 64be
000003a0: 7e3d b43d ac2b a2be dc61 47be c8e3 93be
000003b0: e644 b4bd a322 e43d 61b5 22be 83ea 92be
000003c0: 2f55 52be 7c89 09be 6970 53bd c318 15be
000003d0: c80a 6abe fa24 a6be e52a b5be 8f07 06be
000003e0: b030 2bbe 695c 9bbe e55d 06bf f284 33be
000003f0: 67ea 77be 5001 85be 5d4e d7be 7884 ccbe

lstm.weight_ih_l1 f4 [512, 128]
-0.089172706 0.07471752 -0.088105805 0.021568764 -0.037193965 0.10426921 -0.03359111 -0.08027128
-0.12255051 0.057324454 -0.055587385 0.11122121 0.055770956 -0.018025469 -0.02403317 0.05031754
0.07101668 0.044484958 0.11367841 0.043607015 0.056211755 0.0084974505 0.050223995 0.11192373
-0.02225833 0.032570023 0.006056653 0.09859531 0.016718842 -0.008372577 0.03338411 -0.023537867
-0.051677078 0.071540855 -0.25685906 0.047566686 0.084344506 -0.20203543 -0.04795509 -0.1353192
-0.08804178 -0.0023318855 0.007921854 0.104618475 0.03323281 0.12996581 0.01080163 -0.07318349
0.15103593 0.028132813 0.01065297 -0.05012693 -0.03946687 0.08237128 0.00932869 -0.014390233
-0.0366225 -0.09404668 0.11629756 0.1498946 -0.08720974 0.044551484 0.046331067 -0.029076861
-0.06451795 -0.14886291 -0.041497298 0.020293197 -0.060942337 -0.03363498 0.026682008 0.04605946
-0.046340793 0.10723606 0.0098108 0.16855265 -0.093835264 -0.13693108 0.15487194 0.14145209
-0.046881855 -0.044272143 0.017212465 -0.0359386 0.057695474 -0.15686688 -0.1583486 0.07944403
-0.0068690106 0.24809416 -0.048092872 0.1285668 5.213889e-05 -0.094533116 0.027785463 0.08083146
0.24504782 0.08174499 0.104022786 0.08909246 -0.001222462 0.19341567 0.15530601 0.05093613
-0.12364867 -0.037801277 0.0802247 -0.0013975338 -0.07946854 -0.04812559 0.060185894 -0.010924347
0.13053818 -0.054089893 -0.01059789 0.011464903 -0.13443789 -0.05304943 -0.03000325 0.047920045
-0.03454422 -0.033401456 -0.07541632 0.036082752 -0.055990648 0.09449454 -0.04600027 -0.17572363
-0.046015862 0.0048479512 -0.01330654 -0.09590549 0.021587986 -0.07267721 -0.0020078144 -0.25233114
-0.04449439 -0.01561844 0.027110608 -0.039424915 -0.024461571 -0.02336533 0.025348498 0.02637723
0.09334006 -0.056375638 -0.001015674 -0.0029878204 0.1077069 -0.027363826 -0.13747756 0.08680027
-0.09872755 -0.11695381 0.027732039 0.0039697774 -0.04504048 0.082532056 0.10381771 -0.018802013
0.054609057 0.104951695 0.028877465 -0.08936225 0.11149418 -0.12504591 0.042961475 -0.03874438
-0.025670798 -0.04504402 0.15329896 0.062031683 -0.11152807 -0.08385492 0.07848013 0.011670306
0.16278382 -0.011456284 0.0044428143 0.15044561 -0.09900186 0.10801594 0.016912442 -0.11055787
-0.0042422763 -0.1045363 0.14372948 -0.06425345 -0.10115271 0.14085963 -0.06331892 0.10694068
-0.032497156 -0.041766334 0.090378016 -0.13689473 0.1041038 -0.0031794508 0.04891513 0.05387643
-0.023109816 -0.09727784 -0.013049295 -0.032967124 -0.07775898 -0.122687526 0.12982868 -0.02267026
-0.06600196 -0.016000722 0.16637544 -0.04417574 0.013421008 0.12762988 -0.03143105 0.09050206
0.013927538 0.16539517 -0.047373045 0.11341928 -0.11652735 -0.07034824 0.016835207 0.03895343
-0.067535624 -0.024577495 0.13673049 0.001466017 -0.03922762 -0.25288177 0.0048588356 0.05466509
-0.05365121 -0.16566218 0.026425429 -0.14004642 -0.03576334 0.0914411 0.10977039 -0.022325264
0.2717334 0.041891523 -0.10061051 -0.092797264 -0.057661038 0.08273569 -0.091206715 -0.061358012
-0.015187984 0.053032786 -0.09231782 0.050440647 0.0047039324 -0.1731449 -0.22120382 -0.22980464
00000000: 2ea0 b6bd 8005 993d d170 b4bd fab0 b03c
00000010: b358 18bd 188b d53d d596 09bd 4565 a4bd
00000020: c3fb fabd 0ccd 6a3d 99af 63bd f2c7 e33d
00000030: 1670 643d 26aa 93bc 36e1 c4bc c419 4e3d
00000040: 3171 913d dc35 363d 3ad0 e83d 459d 323d
00000050: 4c3e 663d e438 0b3c adb7 4d3d 4538 e53d
00000060: 1a57 b6bc 2568 053d e376 c63b 56ec c93d
00000070: f4f5 883c 222d 09bc c7bd 083d 7cd2 c0bc
00000080: 58ab 53bd 0384 923d 0883 83be 49d5 423d
00000090: d0bc ac3d 60e2 4ebe 8e6c 44bd 1e91 0abe
000000a0: 404f b4bd 8cd2 18bb aaca 013c 3642 d63d
000000b0: 211f 083d c215 053e 52f9 303c 3ae1 95bd
000000c0: 2aa9 1a3e c976 e63c cb89 2e3c e551 4dbd
000000d0: 03a8 21bd 46b2 a83d 5dd7 183c 03c5 6bbc
000000e0: 7901 16bd 8c9b c0bd 6a2d ee3d f87d 193e
000000f0: 059b b2bd 9e7b 363d a5c5 3d3d 9932 eebc
00000100: fd21 84bd 856f 18be 12f9 29bd eb3d a63c
00000110: ac9e 79bd d5c4 09bd 3a94 da3c d8a8 3c3d
00000120: d8cf 3dbd 949e db3d 7abd 203c 1199 2c3e
00000130: b42c c0bd a937 0cbe c096 1e3e d1d8 103e
00000140: 3007 40bd b556 35bd 2801 8d3c 5a34 13bd
00000150: 1752 6c3d b6a1 20be 2326 22be 8db3 a23d
00000160: 7015 e1bb 650c 7e3e 08fd 44bd 04a7 033e
00000170: b5af 5a38 949a c1bd 579e e33c f78a a53d
00000180: d1ed 7a3e eb69 a73d e609 d53d 1c76 b63d
00000190: 053b a0ba c20e 463e 8a08 1f3e 67a2 503d
000001a0: 843b fdbd 83d5 1abd d94c a43d 742d b7ba
000001b0: 67c0 a2bd 571f 45bd 7c85 763d 08fc 32bc
000001c0: cdab 053e 5d8d 5dbd c6a2 2dbc 4ad7 3b3c
000001d0: 16aa 09be 5c4a 59bd 60c9 f5bc cf47 443d
000001e0: 3d7e 0dbd f7cf 08bd df73 9abd 82cb 133d
000001f0: 7356 65bd 5a86 c13d c76a 3cbd e5f0 33be
00000200: 217b 3cbd 90db 9e3b ad03 5abc 196a c4bd
00000210: 4ad9 b03c cad7 94bd 8995 03bb 8c31 81be
00000220: c03f 36bd 7ce4 7fbc 1117 de3c 057c 21bd
00000230: a263 c8bc a668 bfbc a7a7 cf3c 1015 d83c
00000240: 1329 bf3d 24ea 66bd 5d20 85ba 4fcf 43bb
00000250: 6f95 dc3d 1a2a e0bc ebc6 0cbe 57c4 b13d
00000260: ab31 cabd 7b85 efbd 4d2e e33c e814 823b
00000270: 5e7c 38bd 9106 a93d 619e d43d ae06 9abc
00000280: bfad 5f3d eaf0 d63d 6f90 ec3c 8e03 b7bd
00000290: 1057 e43d 090c 00be 5ff8 2f3d 6db2 1ebd
000002a0: 914b d2bc 1480 38bd 67fa 1c3e ef14 7e3d
000002b0: d468 e4bd 21bc abbd 31ba a03d d034 3f3c
000002c0: cdb0 263e 23b3 3bbc 0795 913b 6a0e 1a3e
000002d0: 7dc1 cabd 7637 dd3d f68b 8a3c 2a6c e2bd
000002e0: cb02 8bbb 2117 d6bd d22d 133e 5097 83bd
000002f0: 2729 cfbd 823d 103e 5aad 81bd b703 db3d
00000300: bd1b 05bd 2d13 2bbd 1c18 b93d 222e 0cbe
00000310: 6034 d53d 555e 50bb 3b5b 483d 88ad 5c3d
00000320: cc50 bdbc 9b39 c7bd b6cc 55bc 8908 07bd
00000330: 1a40 9fbd 9943 fbbd cff1 043e fbb6 b9bc
00000340: 092c 87bd f213 83bc 535e 2a3e 9ff1 34bd
00000350: cae3 5b3c 68b1 023e d8bd 00bd 2559 b93d
00000360: 5430 643c 5a5d 293e 3d0a 42bd 5e48 e83d
00000370: e4a5 eebd bd12 90bd fde9 893c a28d 1f3d
00000380: 1e50 8abd be56 c9bc 1403 0c3e 5e27 c03a
00000390: 24ad 20bd b879 81be de36 9f3b 80e8 5f3d
000003a0: 5fc1 5bbd 59a3 29be 247a d83c 5468 0fbe
000003b0: 947c 12bd 7945 bb3d 4ccf e03d 79e3 b6bc
000003c0: a420 8b3e 7296 2b3d e20c cebd 7e0c bebd
000003d0: fb2d 6cbd 5471 a93d 96ca babd 8a52 7bbd
000003e0: 06d7 78bc e838 593d 2011 bdbd da9a 4e3d
000003f0: 7223 9a3b e64c 31be 4183 62be e851 6bbe

lstm.weight_hh_l1 f4 [512, 128]
0.0511727 0.08208452 0.0061623165 -0.097364135 -0.2157765 0.04805545 0.17828451 0.10330365
-0.03029361 -0.05340331 -0.02384278 -0.044810977 0.15747795 0.05766789 0.056714643 -0.03502489
0.044153295 0.066208005 -0.14828001 0.054597232 0.01640176 -0.053535044 0.10176191 0.20191985
-0.1718727 -0.0763271 -0.0010795547 -0.056288876 0.0030772435 0.026534753 0.05220961 0.019010548
0.056001954 -0.11386574 0.11200407 -0.12104615 0.046683725 0.08911388 -0.11766505 0.11909962
0.052228358 -0.03547749 -0.1669681 -0.04278544 -0.2473237 -0.14984627 -0.23870276 0.065397985
-0.102022596 0.17220633 -0.14761719 -0.11999908 -0.008066806 -0.038459036 0.02126158 0.0387055
-0.010519544 0.19253308 -0.13440529 0.06613551 -0.17146109 0.115683466 -0.0060518133 0.089481406
0.058390234 -0.14342044 -0.1336933 -0.16133577 -0.29873678 0.1971241 0.1573861 -0.09283358
-0.035871617 -0.044148333 -0.06528178 0.15466504 -0.05911851 0.02397499 0.16109677 -0.05312409
-0.05872977 0.07015886 -0.14232653 0.07132059 -0.19543166 -0.085592434 -0.1527622 -0.016525058
-0.11895978 0.10417723 -0.024668736 -0.16510062 -0.041057125 0.09585874 -0.09798592 -0.06817412
0.10352077 0.024858616 0.059371874 -0.095143564 -0.05019785 -0.06962276 -0.007164804 -0.03322214
0.014887434 -0.20336197 0.037621174 -0.0010262176 0.042578243 -0.1488296 0.10704039 -0.2571032
0.1020382 -0.13166082 -0.05971688 0.18399069 -0.0452561 0.03774835 0.06450023 0.0137440255
-0.103421405 0.13039999 0.107836284 0.09072478 0.073932715 0.17388551 -0.013609571 -0.023147013
0.0076736114 0.105286814 -0.049354903 -0.115702845 -0.13895771 0.107558 0.06122526 0.119712174
-0.18531832 0.008374506 -0.15868254 -0.086500876 0.22329701 -0.06882957 -0.042645108 -0.005025692
0.15295003 0.0761431 -0.02349695 -0.08168695 -0.015216392 -0.04644689 0.0837073 0.18603379
-0.04703938 -0.109905206 -0.077764854 0.03605176 -0.011059988 0.100694895 0.01960784 -0.070136055
-0.02781018 -0.2059414 0.13303834 -0.16584675 -0.0558433 0.12102591 -0.08704198 -0.2122056
0.024754034 -0.1364567 -0.05959838 -0.036395915 -0.10916386 -0.037072938 -0.12103179 -0.07808427
-0.048838723 0.2689163 -0.062188547 -0.04500621 -0.012523658 -0.11259722 0.02610822 -0.05666328
-0.012702939 0.10813491 -0.075531885 0.033718824 -0.03890402 -0.014067218 0.018621134 0.14951621
0.16532525 0.03854087 -0.09034128 -0.15718871 -0.00035849947 0.20264801 0.023330616 -0.071904115
0.11285902 -0.07140408 0.16883211 0.16494487 -0.07058248 -0.106481574 0.14946975 0.0011856201
-0.16812415 0.022337556 -0.07125336 0.11969449 -0.17235541 -0.17526138 -0.16498399 0.08196784
-0.02868334 -0.096102715 -0.026074214 -0.12679793 -0.086911075 0.064642966 -0.043326978 -0.0009598574
0.01748227 0.0015560599 -0.11683484 -0.0045024585 0.15425424 -0.14935862 0.052847426 -0.0069312654
-0.062441133 -0.11762627 0.075114384 0.12660648 -0.070740804 -0.06402603 -0.017105365 -0.17174494
0.032669302 0.18071494 -0.026890077 -0.14366046 -0.069337204 0.06628023 -0.078313306 -0.09234243
-0.016859956 0.26243395 0.09046456 0.03295819 0.061284304 0.15494964 0.12002187 0.1085447
00000000: 779a 513d ee1b a83d 42ed c93b d966 c7bd
00000010: 84f4 5cbe cbd5 443d 3790 363e dd90 d33d
00000020: 4e2a f8bc 6ebd 5abd ef51 c3bc b78b 37bd
00000030: e641 213e 2a35 6c3d 9d4d 683d 4276 0fbd
00000040: 16da 343d 1098 873d b7d6 17be 59a1 5f3d
00000050: fc5c 863c 9047 5bbd 8c68 d03d 14c4 4e3e
00000060: 66ff 2fbe 6251 9cbd d87f 8dba 2a8f 66bd
00000070: 94ab 493b 695f d93c bed9 553d 02bc 9b3c
00000080: 4e62 653d 7132 e9bd 6462 e53d 0be7 f7bd
00000090: 6f37 3f3d 5781 b63d 60fa f0bd 80ea f33d
000000a0: 67ed 553d d850 11bd b0f9 2abe c93f 2fbd
000000b0: 6d42 7dbe 4d71 19be 7f6e 74be 61ef 853d
000000c0: 39f1 d0bd db56 303e f628 17be 14c2 f5bd
000000d0: a32a 04bc 3987 1dbd c42c ae3c a989 1e3d
000000e0: 2a5a 2cbc 6427 453e 8aa1 09be 0e72 873d
000000f0: 7f93 2fbe 74eb ec3d 4a4e c6bb 0742 b73d
00000100: 992a 6f3d cfdc 12be e5e6 08be 3435 25be
00000110: 07f4 98be e6da 493e d229 213e 881f bebd
00000120: 1eee 12bd e2d4 34bd 74b2 85bd 8360 1e3e
00000130: 4026 72bd 3367 c43c 8df6 243e a598 59bd
00000140: a18e 70bd 73af 8f3d 0cbe 11be 8810 923d
00000150: 3d1f 48be 164b afbd b26d 1cbe 8f5f 87bc
00000160: 2fa1 f3bd df5a d53d 1716 cabc 2310 29be
00000170: 842b 28bd 9651 c43d d8ac c8bd df9e 8bbd
00000180: b302 d43d 4ca4 cb3c ec2f 733d a1da c2bd
00000190: 439c 4dbd 6196 8ebd bbc6 eabb f013 08bd
000001a0: 6dea 733c 1f3e 50be a918 1a3d 2682 86ba
000001b0: 8666 2e3d c966 18be fe37 db3d 08a3 83be
000001c0: 67f9 d03d 18d2 06be b099 74bd 0e68 3c3e
000001d0: 765e 39bd 049e 1a3d b218 843d 9f2e 613c
000001e0: 9ace d3bd 9387 053e 45d9 dc3d eacd b93d
000001f0: 096a 973d 0b0f 323e aefa 5ebc ce9e bdbc
00000200: eb72 fb3b 9da0 d73d 5e28 4abd 9df5 ecbd
00000210: ee4a 0ebe 5e47 dc3d 57c7 7a3d a82b f53d
00000220: 16c4 3dbe 3935 093c ad7d 22be 5f27 b1bd
00000230: f9a7 643e 85f6 8cbd a3ac 2ebd 8fae a4bb
00000240: ef9e 1c3e eaf0 9b3d ad7c c0bc 7d4b a7bd
00000250: 2d4e 79bc 183f 3ebd bc6e ab3d a47f 3e3e
00000260: 5dac 40bd fb15 e1bd 2e43 9fbd 03ab 133d
00000270: f434 35bc 2039 ce3d 9fa0 a03c 7ea3 8fbd
00000280: 2dd2 e3bc 4de2 52be 343b 083e bbd3 29be
00000290: f2bb 64bd 6fdc f73d 1143 b2bd 6d4c 59be
000002a0: f9c8 ca3c 4ebb 0bbe 6e1d 74bd e213 15bd
000002b0: 4d91 dfbd cbd9 17bd 84df f7bd a5ea 9fbd
000002c0: 1d0b 48bd 66af 893e 6bb9 7ebd 6f58 38bd
000002d0: 0730 4dbc 5f99 e6bd e8e0 d53c c117 68bd
000002e0: fd1f 50bc d675 dd3d 76b0 9abd c01c 0a3d
000002f0: d259 1fbd 307a 66bc 598b 983c c71a 193e
00000300: 064b 293e 08dd 1d3d d904 b9bd 14f6 20be
00000310: fcf4 bbb9 f682 4f3e d91f bf3c 7742 93bd
00000320: a122 e73d 4d3c 92bd 53e2 2c3e 4fe7 283e
00000330: 8c8d 90bd 0313 dabd 990e 193e cf66 9b3a
00000340: bd28 2cbe 40fd b63c 48ed 91bd 6322 f53d
00000350: f07d 30be b877 33be 90f1 28be c1de a73d
00000360: 53f9 eabc 80d1 c4bd 9799 d5bc 51d7 01be
00000370: 6ffe b1bd 8863 843d a177 31bd f19e 7bba
00000380: fa36 8f3c b5f4 cb3a 1b47 efbd 5c89 93bb
00000390: d3f4 1d3e 77f1 18be 8b76 583d ab1f e3bb
000003a0: 46c2 7fbd 0be6 f0bd 92d5 993d 21a5 013e
000003b0: 8ee0 90bd 1420 83bd 8d20 8cbc e8dd 2fbe
000003c0: 3fd0 053d 560d 393e 9448 dcbc ba1b 13be
000003d0: aa00 8ebd eebd 873d ba62 a0bd 071e bdbd
000003e0: e41d 8abc be5d 863e 7c45 b93d 2bff 063d
000003f0: 4005 7b3d 1eab 1e3e 07ce f53d af4c de3d

lstm.bias_ih_l1 f4 [512]
-0.17981662 -0.18774746 -0.075533114 -0.05188715 0.03743639 -0.09803902 0.010522845 -0.16603504
0.038409803 -0.1137439 -0.2517285 -0.057201743 0.19323523 -0.17596921 0.06518714 -0.21970373
-0.093784295 0.012359494 -0.03373675 -0.11467561 -0.054302275 -0.007960728 -0.18461685 0.041465413
-0.05034423 -0.06916572 -0.30986974 -0.075529575 -0.14906693 -0.2863483 -0.16418253 -0.116572246
-0.21513535 -0.027623946 0.16323738 -0.167165 -0.24519478 -0.17284088 -0.08345768 0.01067913
-0.004124682 -0.16663013 -0.06597916 -0.14280042 0.015448951 0.028649567 -0.026719717 0.09377112
-0.1628626 -0.096231006 -0.18530953 -0.17900541 0.020300636 -0.13642667 -0.0007029428 -0.15740667
-0.15393335 -0.0067479317 -0.2530442 -0.10435854 -0.15307024 -0.15918805 -0.2185709 -0.10254576
-0.05915906 -0.018236881 -0.082956046 -0.11746198 0.115466885 -0.0072506694 -0.20430247 -0.1076524
-0.22861579 -0.19491167 0.051669836 -0.008595162 -0.04708556 -0.1756895 -0.123884425 -0.2566428
-0.27162045 -0.00021238248 -0.20124589 -0.23287378 0.016231086 0.019605948 -0.09572214 -0.24201985
-0.24326083 -0.037531 -0.15633051 -0.19160487 -0.09551172 -0.0722256 -0.19529897 -0.196891
-0.10907821 -0.1865849 -0.10596717 -0.14612816 -0.10296348 -0.14579089 -0.15775384 -0.08613795
-0.13707866 -0.023758577 -0.08904358 -0.24877825 -0.32590747 -0.083621964 -0.0935517 -0.007447468
-0.2690127 -0.025256338 -0.17190127 -0.065186456 0.03730804 -0.021698674 -0.20004483 -0.032312322
-0.13991104 0.29897633 -0.044853833 -0.001521233 0.053203102 -0.038357586 -0.25654772 -0.089155726
-0.105412185 -0.23142883 -0.06197463 -0.026759988 0.06472553 -0.11766044 -0.018925563 0.022893766
-0.012350465 -0.22462438 -0.0412803 -0.0233194 0.15949212 -0.04275772 0.14439346 -0.2501736
-0.0829981 -0.04389324 0.04713681 -0.04639615 -0.11759352 -0.07210028 -0.023572337 -0.025242697
-0.033791743 0.098965 -0.18441038 -0.069601506 -0.11942447 -0.18806636 -0.055204965 -0.09609105
-0.12841602 0.026299704 0.09852961 -0.1293115 -0.19500963 -0.026772674 -0.14154227 0.050361693
-0.058728263 -0.29693288 0.08049286 -0.1054992 -0.05245576 0.040683977 -0.0034858093 0.098170586
-0.1930877 0.08824908 0.01378452 -0.093188174 0.0702687 0.009581571 0.029853564 -0.13882264
-0.16828927 -0.02234769 -0.10575443 0.10519782 0.06402256 -0.006583364 -0.29144716 -0.05381809
0.009206435 -0.02062281 0.0708075 -0.08119525 -0.04753747 0.106624894 -0.0034169776 0.027052708
-0.16142467 -0.013696035 -0.012082273 -0.034546144 0.018279854 -0.114606954 -0.09440933 -0.22754362
-0.16495702 -0.028891278 -0.05350946 -0.17957476 0.07242703 0.041279837 -0.0056577236 -0.005057789
-0.10585548 -0.12470692 0.022099998 -0.010824087 -0.011686894 0.024267932 -0.08828046 0.03698244
-0.020173177 -0.12324136 -0.14288116 -0.084231555 -0.0006381423 -0.074877255 -0.20483679 -0.028772224
0.06009957 0.0014618861 -0.05651007 -0.0066508264 -0.384905 0.09463411 -0.08661258 0.07048385
-0.15566707 -0.036924437 -0.09847199 -0.14734678 0.08975141 -0.17866789 -0.03971091 -0.060078405
-0.14856605 0.20918001 0.0017890652 0.027415881 0.05680186 0.072318554 -0.033737008 0.020171883
00000000: d921 38be df40 40be 1bb1 9abd 9f87 54bd
00000010: e656 193d afc8 c8bd 0368 2c3c 1705 2abe
00000020: 9953 1d3d 90f2 e8bd 8fe2 80be 604c 6abd
00000030: 75df 453e 4631 34be d680 853d 04fa 60be
00000040: fb11 c0bd 7a7f 4a3c 8c2f 0abd 0cdb eabd
00000050: 106c 5ebd b76d 02bc 330c 3dbe a3d7 293d
00000060: c035 4ebd c2a6 8dbd 3fa7 9ebe 40af 9abd
00000070: 00a5 18be 3f9c 92be 771f 28be 6ebd eebd
00000080: 714c 5cbe 9d4b e2bc b327 273e 4d2d 2bbe
00000090: 5714 7bbe 33fd 30be dceb aabd 85f7 2e3c
000000a0: 5728 87bb 17a1 2abe 1520 87bd 463a 12be
000000b0: 991d 7d3c 7fb2 ea3c 4fe3 dabc 130b c03d
000000c0: 74c5 26be c314 c5bd c8c1 3dbe 324d 37be
000000d0: 854d a63c 6fb3 0bbe b145 38ba 372f 21be
000000e0: b4a0 1dbe c11d ddbb 028f 81be eeb9 d5bd
000000f0: 72be 1cbe 3102 23be 0dd1 5fbe 8303 d2bd
00000100: c550 72bd 8365 95bc dce4 a9bd e88f f0bd
00000110: e779 ec3d 0697 edbb ab34 51be dd78 dcbd
00000120: 421a 6abe ed96 47be c0a3 533d b9d2 0cbc
00000130: cadc 40bd f3e7 33be 1eb7 fdbd af66 83be
00000140: d611 8bbe fdb2 5eb9 6713 4ebe 7776 6ebe
00000150: 0ef7 843c a79c a03c f809 c4bd 0dd4 77be
00000160: 5e19 79be 1bba 19bd 1b15 20be 1134 44be
00000170: a69b c3bd 04eb 93bd 74fc 47be cb9d 49be
00000180: 6664 dfbd 1d10 3fbe 5105 d9bd 9fa2 15be
00000190: 84de d2bd 354a 15be 398a 21be 1869 b0bd
000001a0: 595e 0cbe 59a1 c2bc 7b5c b6bd babf 7ebe
000001b0: 58dd a6be fe41 abbd 0998 bfbd e409 f4bb
000001c0: 08bc 89be 61e6 cebc e306 30be 7a80 85bd
000001d0: 51d0 183d 6bc1 b1bc 8dd8 4cbe ed59 04bd
000001e0: d744 0fbe 6d13 993e a7b8 37bd 1c64 c7ba
000001f0: 7feb 593d d81c 1dbd 395a 83be 4797 b6bd
00000200: 58e2 d7bd aefb 6cbe 1cd9 7dbd c337 dbbc
00000210: d28e 843d f5f7 f0bd c809 9bbc b58b bb3c
00000220: 9b59 4abc ef03 66be 8815 29bd 5408 bfbc
00000230: e751 233e b822 2fbd e1db 133e c116 80be
00000240: e8fa a9bd 66c9 33bd 8712 413d e409 3ebd
00000250: dfd4 f0bd 50a9 93bd c61a c1bc c6c9 cebc
00000260: 3669 0abd 29ae ca3d 13d6 3cbe 3c8b 8ebd
00000270: d194 f4bd 7894 40be 9a1e 62bd 62cb c4bd
00000280: 7d7f 03be 7a72 d73c e4c9 c93d 3c6a 04be
00000290: 9bb0 47be 5e52 dbbc 75f0 10be 1048 4e3d
000002a0: 0c8d 70bd 9607 98be 71d9 a43d f70f d8bd
000002b0: dadb 56bd 3ea4 263d 2d72 64bb a90d c93d
000002c0: c8b8 45be efbb b43d 78d8 613c 71d9 bebd
000002d0: 09e9 8f3d 06fc 1c3c 768f f43c 8627 0ebe
000002e0: 0654 2cbe 8112 b7bc c795 d8bd f471 d73d
000002f0: 431e 833d 43b9 d7bb 9038 95be 5c70 5cbd
00000300: 96d6 163c 2bf1 a8bc 8603 913d b249 a6bd
00000310: a6b6 42bd 275e da3d 5fef 5fbb a49d dd3c
00000320: 824c 25be 5665 60bc baf4 45bc 4280 0dbd
00000330: a2bf 953c 0db7 eabd ae59 c1bd 3201 69be
00000340: 7eea 28be 67ad ecbc bc2c 5bbd 72e2 37be
00000350: 9f54 943d 0c15 293d 6d64 b9bb cfbb a5bb
00000360: c2ca d8bd 5766 ffbd 0e0b b53c 8357 31bc
00000370: 637a 3fbc 8bcd c63c 63cc b4bd e67a 173d
00000380: 3842 a5bc f765 fcbd 704f 12be 9881 acbd
00000390: 0149 27ba 3f59 99bd bcc0 51be bab3 ebbc
000003a0: f72a 763d c29c bf3a 1a77 67bd 2def d9bb
000003b0: 4512 c5be 87cf c13d f061 b1bd d659 903d
000003c0: 3067 1fbe 143e 17bd afab c9bd 13e2 16be
000003d0: 96cf b73d b7f4 36be e8a7 22bd c614 76bd
000003e0: b321 18be 4933 563e 117f ea3a 4597 e03c
000003f0: 11a9 683d c01b 943d d12f 0abd 813f a53c

lstm.bias_hh_l1 f4 [512]
-0.25957626 -0.2819006 -0.005251573 -0.064338125 0.025817519 -0.099703975 0.030049177 -0.19899616
-0.048055653 -0.1880872 -0.23865156 0.021127066 0.15938935 -0.10486796 0.13975212 -0.22905837
-0.058209676 -0.051818963 0.029009689 -0.105609894 -0.17430978 -0.06354659 -0.09063408 0.03447795
-0.05225073 0.05259134 -0.18066758 -0.1580606 -0.06602745 -0.18657279 -0.18637517 -0.09235816
-0.24041443 -0.026552284 0.16398415 -0.14329425 -0.18785462 -0.20565839 -0.15076448 -0.05925792
-0.0038509546 -0.23594514 0.016053902 -0.16689517 -0.06154236 0.029019581 -0.04336969 0.082980536
-0.1191846 -0.10506658 -0.14941141 -0.21939294 -0.1464023 -0.16202573 -0.13592783 -0.16749986
-0.12258586 -0.031848464 -0.18563971 -0.041630622 -0.058558006 -0.07077919 -0.23484053 -0.17347279
-0.049657013 -0.11204783 -0.14227189 -0.14659344 0.089343734 -0.03454174 -0.15347898 0.002031133
-0.17914942 -0.17918496 -0.04779593 -0.017531162 0.021999476 -0.20031586 -0.100888945 -0.25744256
-0.2580598 -0.077151224 -0.13337366 -0.20919955 -0.0857745 0.06546942 -0.0036212485 -0.22263066
-0.20001462 -0.07854663 -0.1122514 -0.15882042 -0.20307633 -0.11207014 -0.100135855 -0.062598
0.02531675 -0.10354527 -0.1415471 -0.10768626 -0.12038894 -0.062016536 -0.2087085 -0.08047572
-0.038056947 -0.06726597 -0.15310498 -0.14075215 -0.35381228 -0.08457025 -0.17823869 -0.01666304
-0.31058568 0.024668641 -0.07080664 -0.00020538249 0.035981838 -0.027752725 -0.06860714 0.04566265
-0.19555278 0.29710782 -0.09579984 -0.10971783 0.012441055 -0.02312818 -0.26791692 -0.07109605
-0.14904189 -0.15732193 -0.054419614 -0.026021756 0.090551995 -0.1806512 0.04759895 0.04683604
-0.08879632 -0.18277094 0.011683492 -0.031398848 0.053908985 -0.111709446 0.2762742 -0.14739542
-0.11766195 -0.0047473363 -0.04904857 -0.18120377 0.015484549 -0.014082865 -0.17832248 -0.06015384
-0.036467534 -0.018679604 -0.16765168 0.03363007 0.03159265 -0.035518225 -0.08194204 0.017316869
-0.07897314 0.0496681 0.23419406 -0.18532974 -0.094641946 -0.053017136 -0.24681556 -0.04232422
-0.081769295 -0.2720996 0.11801774 -0.13413568 -0.05068437 0.04682718 0.10379628 0.15941907
-0.107952505 0.07011057 -0.026338585 -0.12518999 -0.017122759 0.039706986 -0.0753967 -0.25653464
-0.11809965 -0.04627319 -0.18217324 0.21880649 0.022868372 -0.11578547 -0.11893429 -0.120046556
-0.0811558 -0.040976934 0.11335509 0.017655225 0.07683323 0.11086666 -0.052998375 -0.049544178
-0.14327875 0.012297922 0.12891163 0.08687549 -0.07951562 -0.20629224 -0.13105536 -0.15634133
-0.10025153 0.029333724 -0.15586321 -0.11643913 0.1028197 0.10049425 -0.034188353 -0.027782386
-0.099551894 -0.20887205 0.03615108 0.037446897 -0.10237228 0.047685925 -0.072660506 0.018413529
-0.06410019 -0.14179252 -0.048627924 -0.054097116 -0.096126646 -0.09039933 -0.19736223 0.09666696
-0.0605746 0.061195444 -0.16347437 -0.06678185 -0.328219 0.15003097 -0.09178728 0.08509915
-0.15946318 0.12311481 -0.1494099 -0.2193966 0.06516238 -0.09975549 -0.13991097 0.09328013
-0.021588279 0.2069011 0.07437715 0.06177998 0.14827104 0.047010094 -0.037908316 -0.034260612
00000000: 2ee7 84be 4755 90be 6315 acbb b5c3 83bd
00000010: 437f d33c 9931 ccbd b129 f63c a6c5 4bbe
00000020: 01d6 44bd ee99 40be 1361 74be ab12 ad3c
00000030: f636 233e 03c5 d6bd 2e1b 0f3e 478e 6abe
00000040: 456d 6ebd 1f40 54bd baa5 ed3c 004a d8bd
00000050: 437e 32be b724 82bd 5c9e b9bd c038 0d3d
00000060: dd04 56bd 046a 573d ec00 39be a3da 21be
00000070: 6639 87bd f00c 3fbe 22d9 3ebe 4626 bdbd
00000080: 332f 76be 2d84 d9bc 76eb 273e babb 12be
00000090: f65c 40be 1d98 52be 0162 1abe 6fb8 72bd
000000a0: 4c60 7cbb 9a9b 71be 7983 833c 91e6 2abe
000000b0: d713 7cbd 79ba ed3c 6ba4 31bd b3f1 a93d
000000c0: 0e17 f4bd 262d d7bd 4eff 18be 8ba8 60be
000000d0: 7cea 15be 13ea 25be aa30 0bbe 1585 2bbe
000000e0: 4c0e fbbd 8973 02bd 5618 3ebe df84 2abd
000000f0: 85da 6fbd aef4 90bd 097a 70be daa2 31be
00000100: 2765 4bbd 5579 e5bd b9af 11be 971c 16be
00000110: d9f9 b63d a47b 0dbd 9829 1dbe c21c 053b
00000120: f272 37be 437c 37be aac5 43bd 839d 8fbc
00000130: 3f38 b43c 9a1f 4dbe dd9e cebd 83cf 83be
00000140: 6a20 84be 7601 9ebd 1b93 08be 6838 56be
00000150: 8baa afbd d514 863d 7852 6dbb 4bf9 63be
00000160: a2d0 4cbe 0edd a0bd 10e4 e5bd d2a1 22be
00000170: 3ef3 4fbe 0885 e5bd 0714 cdbd 6133 80bd
00000180: 1365 cf3c 8b0f d4bd b9f1 10be 9d8a dcbd
00000190: 7a8e f6bd 0d05 7ebd aeb7 55be 74d0 a4bd
000001a0: 9ae1 1bbd bec2 89bd 8dc7 1cbe 5521 10be
000001b0: e226 b5be 2b33 adbd 3484 36be ed80 88bc
000001c0: 1605 9fbe e415 ca3c 1203 91bd f15b 57b9
000001d0: b161 133d af59 e3bc e681 8cbd c208 3b3d
000001e0: fd3e 48be 841e 983e b532 c4bd beb3 e0bd
000001f0: 91d5 4b3c 4f77 bdbc 682c 89be ce9a 91bd
00000200: 709e 18be 0019 21be 1ae7 5ebd 942b d5bc
00000210: 5373 b93d a1fc 38be 1ef7 423d 26d7 3f3d
00000220: d8da b5bd 4e28 3bbe 1e6c 3f3c 149c 00bd
00000230: abcf 5c3d ecc7 e4bd d073 8d3e d3ee 16be
00000240: c0f8 f0bd 8b8f 9bbb 27e7 48bd 7b8d 39be
00000250: e8b2 7d3c d1bb 66bc 2b9a 36be df63 76bd
00000260: fb5e 15bd f805 99bc e2ac 2bbe afbf 093d
00000270: 4b67 013d 8f7b 11bd 3ad1 a7bd 1bdc 8d3c
00000280: abbc a1bd c770 4b3d 91d0 6f3e 14c7 3dbe
00000290: a3d3 c1bd 7f28 59bd 38bd 7cbe 295c 2dbd
000002a0: a976 a7bd a450 8bbe 49b3 f13d dd5a 09be
000002b0: 6a9a 4fbd dbcd 3f3d 2593 d43d c13e 233e
000002c0: 3416 ddbd 2196 8f3d 04c4 d7bc ce31 00be
000002d0: 0745 8cbc cba3 223d 9669 9abd 8258 83be
000002e0: 3bde f1bd f588 3dbd 9f8b 3abe cf0e 603e
000002f0: 7456 bb3c ef20 edbd d293 f3bd f8da f5bd
00000300: 0335 a6bd 6ed7 27bd b726 e83d b1a1 903c
00000310: be5a 9d3d 0f0e e33d d314 59bd d6ee 4abd
00000320: aab7 12be 397d 493c 6901 043e c7eb b13d
00000330: 16d9 a2bd 463e 53be 6033 06be f117 20be
00000340: ad50 cdbd 474d f03c 9b9a 1fbe a377 eebd
00000350: 2393 d23d eecf cd3d 1609 0cbd e397 e3bc
00000360: dde1 cbbd 8ee2 55be 2813 143d eb61 193d
00000370: 8fa8 d1bd 5152 433d 08cf 94bd f8d7 963c
00000380: f646 83bd 0f32 11be 132e 47bd f094 5dbd
00000390: 0cde c4bd 4923 b9bd 5319 4abe 54f9 c53d
000003a0: 121d 78bd 13a8 7a3d d365 27be ecc4 88bd
000003b0: 520c a8be b8a1 193e f8fa bbbd 7748 ae3d
000003c0: 514a 23be 9e23 fc3d e9fe 18be 81a9 60be
000003d0: db73 853d 9b4c ccbd d244 0fbe a709 bf3d
000003e0: e7d9 b0bc e2dd 533e 0c53 983d 010d 7d3d
000003f0: 5dd4 173e a88d 403d c045 1bbd db54 0cbd
